services/modelling/models/_pv_energy.onnx (onnx, 111495 bytes, 13 tensors)

StatefulPartitionedCall/sequential_1/dense_9/MatMul/ReadVariableOp:0 f4 [88, 72]
-0.1221972 0.07783526 0.09491962 -0.00937515 -0.16998446 -0.02877731 0.046345398 -0.0077755
-0.06080757 0.1399147 0.021582492 0.18359347 0.024963558 -0.10798382 0.03889726 0.117268346
-0.045517456 0.05081071 0.1934571 -0.114926025 -0.1455397 0.02740504 0.12040643 -0.013111253
0.04534177 0.1506735 0.1702753 -0.15524302 0.22589731 -0.2420888 -0.12780792 -0.14183109
0.032344963 0.046493534 0.120034635 -0.04378214 -0.11002908 0.11521494 0.024983535 -0.17265716
0.040986106 -0.21004772 0.015735969 -0.06396905 0.19550668 0.05464473 0.23995511 0.018976137
0.06376817 0.13619375 -0.07991277 -0.17331566 -0.06019278 -0.16440365 -0.0030527243 0.016274761
-0.16712795 -0.052368965 0.03291305 -0.16322501 0.15131839 -0.078711346 0.039950307 0.13397533
-0.03787497 -0.09372137 0.07809122 -0.04628457 0.0033281394 0.12965351 0.16914386 -0.04270554
0.11802524 -0.025513668 0.1505478 0.1093454 -0.008422628 -0.01578748 -0.17851378 -0.14789619
-0.036677837 -0.15037535 0.17911153 0.03196287 -0.14452891 -0.1824157 0.14201254 0.023249974
-0.07540341 -0.061823577 -0.038385935 0.16244136 0.14984953 -0.08727701 -0.13024938 0.10286993
-0.047444366 0.13390213 0.1553317 -0.13826859 0.06467725 -0.015763132 0.037737947 0.1233702
0.080693856 0.05160428 0.121922076 0.100638844 -0.17211929 -0.028640786 0.107507385 -0.158591
0.17429149 -0.103469856 -0.03176309 0.1489281 -0.017730739 0.020046737 0.0011078612 -0.079485565
0.117260195 0.059655156 0.03143199 0.16306563 0.113578565 -0.17956023 -0.21280438 0.14303672
0.06763014 -0.14610368 0.12769149 -0.06302885 -0.026285762 -0.017414555 0.0880377 0.05820785
-0.028526418 -0.04253013 0.029008683 -0.03237945 0.023611177 0.03418807 0.18960471 0.12039132
-0.11725218 -0.29165992 0.110257044 -0.073500164 -0.116750725 0.01591754 0.018457564 0.04156526
-0.16591078 -0.13065818 0.058745574 0.1320315 0.07242116 -0.05218522 0.13025934 0.22151612
0.03377771 -0.056364447 0.203402 -0.1860499 0.14663348 0.18637034 -0.15655114 -0.0664644
0.045871902 -0.06952 0.14052342 -0.07865425 0.22925898 -0.28272176 0.2217196 0.07075825
-0.14184433 -0.064442836 0.0038556159 0.06776795 -0.053867728 -0.045836627 -0.15821452 0.092594214
-0.27367142 0.06879558 -0.10260441 0.12055381 0.24702834 0.1051433 -0.0077996072 0.18230577
0.07289299 -0.028052943 -0.28315508 0.025387788 -0.073515646 -0.022839183 -0.026727965 0.046277694
0.06152168 0.13075921 0.08720588 0.06814299 0.091825694 -0.03738202 -0.18302728 0.096556045
-0.012636759 0.13295029 -0.17581762 0.07802874 0.037278324 0.04884423 0.021237992 0.038186356
0.18104243 -0.2746717 0.09161661 -0.2008772 -0.14183007 -0.17385906 0.20946305 -0.19733138
0.094411016 0.043104 0.04893026 0.05491517 0.14695716 -0.13933115 -0.0063364506 -0.09640719
-0.011479603 -0.0938545 0.03640181 0.122454405 0.03949736 0.0038797488 0.082621336 0.1100438
0.11033753 0.023040434 -0.2044391 -0.20867026 0.115233265 -0.3923783 0.17643985 -0.12718102
0.030334912 -0.32026255 -0.08625771 -0.1239835 -0.30113792 -0.13517907 -0.12936537 -0.094081044
00000000: 8742 fabd 1868 9f3d 3865 c23d 3b9a 19bc
00000010: 6810 2ebe 65be ebbc acd4 3d3d 9fc9 febb
00000020: 5c11 79bd cd45 0f3e c4cd b03c edff 3b3e
00000030: 6080 cc3c 9f26 ddbd bc52 1f3d 632a f03d
00000040: 8370 3abd e41e 503d 9e19 463e 565e ebbd
00000050: 5c08 15be 8980 e03c a597 f63d 95d0 56bc
00000060: 4bb8 393d 274a 1a3e a65c 2e3e 07f8 1ebe
00000070: a051 673e 20e6 77be 14e0 02be 2b3c 11be
00000080: 277c 043d 0170 3e3d b8d4 f53d e754 33bd
00000090: ed56 e1bd cff5 eb3d 45aa cc3c 0acd 30be
000000a0: 0ce1 273d c016 57be b8e8 803c 3502 83bd
000000b0: e732 483e 27d3 5f3d cbb6 753e d873 9b3c
000000c0: e398 823d 6076 0b3e 4ea9 a3bd a979 31be
000000d0: b48c 76bd 6e59 28be 3710 48bb a652 853c
000000e0: 9723 2bbe d780 56bd d6cf 063d 7524 27be
000000f0: 35f3 1a3e 6a33 a1bd efa2 233d d430 093e
00000100: c922 1bbd fdf0 bfbd 4aee 9f3d e494 3dbd
00000110: ea1c 5a3b e4c3 043e 0c34 2d3e 01ec 2ebd
00000120: 38b7 f13d 0a02 d1bc 3429 1a3e 7bf0 df3d
00000130: 10ff 09bc bf54 81bc 51cc 36be 1972 17be
00000140: 803b 16bd fffb 19be 0369 373e 80eb 023d
00000150: 63ff 13be 2ecb 3abe bc6b 113e bb76 be3c
00000160: 1a6d 9abd b83a 7dbd 923a 1dbd 0757 263e
00000170: 2872 193e 4abe b2bd 1860 05be 78ad d23d
00000180: 0655 42bd a41d 093e 460f 1f3e 4896 0dbe
00000190: 8275 843d af21 81bc 1b93 1a3d 84a9 fc3d
000001a0: d242 a53d 025f 533d 48b2 f93d bd1b ce3d
000001b0: 0a40 30be 15a0 eabc d52c dc3d ae65 22be
000001c0: 7879 323e 01e8 d3bd 041a 02bd 9c80 183e
000001d0: 0e40 91bc 0e39 a43c a735 913a 54c9 a2bd
000001e0: 1d26 f03d f758 743d d5be 003d adfa 263e
000001f0: e19b e83d a3de 37be 64e9 59be 3878 123e
00000200: ac81 8a3d 349c 15be 8fc1 023e 4515 81bd
00000210: 3d55 d7bc f8a8 8ebc 1c4d b43d 5b6b 6e3d
00000220: 3cb0 e9bc 1334 2ebd 9ea3 ed3c 50a0 04bd
00000230: 3a6c c13c ca08 0c3d bd27 423e b98f f63d
00000240: e921 f0bd 7354 95be 72ce e13d 4187 96bd
00000250: 011b efbd 8065 823c 5134 973c 5640 2a3d
00000260: 84e4 29be 42cb 05be 339f 703d 4433 073e
00000270: 8c51 943d 2bc0 55bd b462 053e 1fd5 623e
00000280: 7f5a 0a3d 68de 66bd 9d48 503e dd83 3ebe
00000290: 1627 163e ded7 3e3e f14e 20be 7d1e 88bd
000002a0: 2de4 3b3d 8060 8ebd 5fe5 0f3e 7b15 a1bd
000002b0: dec2 6a3e e8c0 90be 760a 633e b4e9 903d
000002c0: a43f 11be 9bfa 83bd 80ae 7c3b ecc9 8a3d
000002d0: 68a4 5cbd 30bf 3bbd fd02 22be 09a2 bd3d
000002e0: a91e 8cbe b2e4 8c3d 4322 d2bd eae4 f63d
000002f0: fff4 7c3e 5f55 d73d d993 ffbb 5dae 3a3e
00000300: ec48 953d 49cf e5bc b4f9 90be 0dfa cf3c
00000310: 5f8f 96bd 3d19 bbbc 9bf4 dabc ae8d 3d3d
00000320: 28fe 7b3d bee5 053e ff98 b23d 8d8e 8b3d
00000330: 1c0f bc3d e41d 19bd 816b 3bbe 2dbf c53d
00000340: 690a 4fbc 1f24 083e 8909 34be 88cd 9f3d
00000350: 28b1 183d e310 483d 4cfb ad3c 4c69 1c3d
00000360: 3063 393e c5a1 8cbe 7da1 bb3d c1b2 4dbe
00000370: e73b 11be 1c08 32be 7b7d 563e 3d11 4abe
00000380: 905a c13d d28d 303d 196b 483d bbee 603d
00000390: f07b 163e d3ac 0ebe 00a2 cfbb 2271 c5bd
000003a0: f214 3cbc ca36 c0bd 101a 153d 60c9 fa3d
000003b0: fcc7 213d 6243 7e3b 6035 a93d a55e e13d
000003c0: a5f8 e13d 4bbf bc3c 7c58 51be a8ad 55be
000003d0: 6bff eb3d cfe5 c8be a6ac 343e be3b 02be
000003e0: ec80 f83c 74f9 a3be e2a7 b0bd 10eb fdbd
000003f0: c02e 9abe 626c 0abe 5b78 04be 90ad c0bd

StatefulPartitionedCall/sequential_1/dense_9/BiasAdd/ReadVariableOp:0 f4 [72]
-0.004639288 0.032462705 -0.14259228 0.006976527 0.0 -0.0030044822 -0.119181134 0.015904784
0.0 -0.10285593 -0.0042669973 -0.14779739 0.0 -0.018632423 0.0 -0.13851762
-0.025902094 0.0 -0.12607649 -0.001626683 0.0 -0.155269 -0.007802534 -0.13201116
-0.12643544 -0.10595016 -0.05888554 -0.01431233 -0.13485669 0.01796832 -0.11973168 0.0
-0.0051656985 0.017701065 0.0 -0.0023085708 0.002755136 -0.16238065 0.0020156845 -0.010154706
0.0075038164 -0.017327348 0.0 -0.13904542 -0.11767254 -0.13886079 -0.15197034 -0.083323285
0.024775488 -0.10698555 -0.0028482429 -0.0020891621 -0.14025746 -0.00899278 -0.010350817 -0.15107192
0.0 -0.004431345 -0.13368954 -0.025018297 -0.13015273 0.0 0.008026744 -0.05591242
-0.048467297 -0.00387353 -0.03419278 0.0 -0.0150220515 -0.15160577 -0.14750114 0.0019074634
00000000: 2b05 98bb 9df7 043d b603 12be 5a9b e43b
00000010: 0000 0000 d9e6 44bb 3d15 f4bd c04a 823c
00000020: 0000 0000 21a6 d2bd 2bd2 8bbb 3358 17be
00000030: 0000 0000 06a3 98bc 0000 0000 90d7 0dbe
00000040: a130 d4bc 0000 0000 321a 01be 6d36 d5ba
00000050: 0000 0000 d6fe 1ebe 66ac ffbb ef2d 07be
00000060: 4b78 01be 66fc d8bd f731 71bd 437e 6abc
00000070: df17 0abe 4c32 933c e235 f5bd 0000 0000
00000080: 0545 a9bb d301 913c 0000 0000 644b 17bb
00000090: 838f 343b 1d47 26be 9319 043b ed5f 26bc
000000a0: 93e2 f53b 15f2 8dbc 0000 0000 ec61 0ebe
000000b0: 4dfe f0bd 8631 0ebe 1d9e 1bbe 66a5 aabd
000000c0: f7f5 ca3c 3d1b dbbd 96a9 3abb 53ea 08bb
000000d0: a79f 0fbe 7456 13bc 7996 29bc 99b2 1abe
000000e0: 0000 0000 d134 91bb e9e5 08be 2cf3 ccbc
000000f0: c246 05be 0000 0000 9b82 033c 6c04 65bd
00000100: a585 46bd 0ddb 7dbb ba0d 0cbd 0000 0000
00000110: 0d1f 76bc 8b3e 1bbe 8a0a 17be da03 fa3a

StatefulPartitionedCall/sequential_1/dense_8/MatMul/ReadVariableOp:0 f4 [120, 88]
-0.019655062 0.016300874 -0.03770468 0.09931479 -0.13891725 0.12036701 -0.10884611 0.012402821
-0.20357084 0.095909595 -0.06660826 -0.042509347 0.019815877 0.02508118 -0.048949264 0.11818645
-0.18567313 0.09054079 -0.054360934 -0.1147525 0.0755683 -0.0816037 -0.0751251 0.06608363
-0.13061064 -0.1455821 0.02663987 0.13134778 -0.07590064 -0.015595213 -0.097417906 -0.1299191
0.11117953 -0.014008286 -0.1795659 0.03544657 -0.15669689 -0.07823758 0.15233602 -0.097916186
-0.019169552 0.13652743 -0.12015139 -0.0783813 0.0308873 -0.11946806 -0.030547634 -0.025694786
0.072424196 0.10755354 -0.060511466 0.13726288 0.12716398 -0.13356593 -0.0006065456 -0.05837129
-0.02259676 0.0713985 0.13604188 -0.14186543 0.13490942 0.14293446 0.047212943 -0.01590439
-0.08200612 -0.046922557 -0.050048653 -0.006324491 -0.05084511 -0.0071970522 -0.1147749 0.044227365
0.033496976 0.06544545 -0.15699102 0.120928936 0.03593099 -0.21074417 0.10519286 0.04004471
0.15214825 -0.042049572 0.0012079602 0.04750717 -0.14524928 -0.10402297 -0.0057738493 -0.17699301
0.11026117 -0.15798084 0.035014357 0.016582405 -0.11297848 0.02284281 -0.13353927 0.16440538
0.03236356 -0.106431834 -0.08766056 0.006471165 0.11533791 0.06607328 0.0819065 -0.09814397
-0.15793927 0.12392831 -0.10307299 -0.0018541962 0.044402733 -0.006866413 -0.114136636 -0.011475697
0.09735272 0.094555825 0.06613161 -0.10348983 0.09532979 -0.12784424 0.02605273 -0.044262495
0.14378485 -0.07935004 0.090886615 0.090203494 -0.1201265 -0.008453355 -0.0297634 -0.03586822
0.04012631 -0.13651602 -0.06581171 -0.031357706 0.039615117 -0.025244221 0.1283696 -0.119984314
0.14092903 0.002560839 -0.044812158 -0.15222569 0.02686736 -0.077718906 0.03751215 0.12241563
0.12603073 0.08027996 0.04830095 -0.06469405 -0.15314151 -0.12711233 0.09744813 -0.04804872
-0.009539616 0.035253584 0.031707544 -0.11979741 -0.1647798 -0.13777144 -0.11032309 -0.0013331034
0.16144404 0.152255 0.1130468 0.1582563 -0.13268483 0.031833753 -0.09392262 0.13624087
-0.055977605 0.03028604 0.10180084 -0.10948359 0.042389765 0.09458386 -0.015612913 0.10479938
0.0265457 0.27520093 0.010728729 0.16838787 0.06311606 -0.1470988 -0.02901535 0.031448826
-0.07508684 -0.1598171 -0.13918167 0.15487796 0.01226291 0.2594824 0.1311589 0.012045601
-0.08956854 0.090099886 -0.029717317 -0.0876033 -0.1235345 0.104141034 0.12729192 0.21904545
0.23549196 0.13278651 -0.010745464 -0.16168466 0.120497644 -0.092555195 0.15340212 0.11319932
-0.031562462 0.27092585 0.17954351 0.048428375 0.09234911 0.17736015 -0.03721429 0.32164073
0.15986186 0.22226198 0.115975566 0.073753595 0.029894982 -0.1634409 0.15089718 0.24598667
-0.028918892 -0.16133033 0.16648474 0.12133368 0.16526026 -0.14169736 0.3273312 0.11424488
0.078414395 -0.05474277 0.17406385 0.036036383 0.09718977 0.051308885 0.35016006 0.021607017
0.10346702 -0.1442759 0.06625248 -0.0065594357 0.123971365 0.10426298 0.023936847 0.19909392
-0.1230123 0.057795763 0.017554779 0.3100815 -0.15712194 -0.060387406 0.17423959 -0.11153987
00000000: a703 a1bc 6989 853c 3970 1abd 8d65 cb3d
00000010: 5340 0ebe fb82 f63d b6ea debd 3435 4b3c
00000020: e074 50be 406c c43d e969 88bd 481e 2ebd
00000030: e854 a23c 0c77 cd3c 067f 48bd bd0b f23d
00000040: 1921 3ebe 736d b93d 92a9 5ebd 5c03 ebbd
00000050: 8ec3 9a3d d71f a7bd 30db 99bd db56 873d
00000060: ccbe 05be 7913 15be db3b da3c 0880 063e
00000070: cb71 9bbd 1083 7fbc 0a83 c7bd 8309 05be
00000080: 18b2 e33d 0383 65bc 20e0 37be 6c30 113d
00000090: 2675 20be 063b a0bd f9fd 1b3e 4888 c8bd
000000a0: 7709 9dbc d9cd 0b3e ef11 f6bd 6086 a0bd
000000b0: 5d07 fd3c acab f4bd 083f fabc df7d d2bc
000000c0: 2353 943d 0845 dc3d dfda 77bd a48e 0c3e
000000d0: 4637 023e 82c5 08be 9600 1fba bc16 6fbd
000000e0: d71c b9bc 6039 923d 904e 0b3e 2c45 11be
000000f0: b225 0a3e 695d 123e 5c62 413d ec49 82bc
00000100: d3f2 a7bd de31 40bd d1ff 4cbd ad3d cfbb
00000110: f642 50bd 40d5 ebbb 1a0f ebbd c127 353d
00000120: 2034 093d 4408 863d 41c2 20be 97a9 f73d
00000130: 602c 133d 52cd 57be 5b6f d73d ec05 243d
00000140: c0cc 1b3e 2c3c 2cbd 6b54 9e3a e196 423d
00000150: 3abc 14be ff09 d5bd 8f32 bdbb a83d 35be
00000160: 9cd0 e13d bbc5 21be 376b 0f3d d3d7 873c
00000170: 4361 e7bd d820 bb3c 85be 08be e259 283e
00000180: a78f 043d eff8 d9bd 6187 b3bd 110c d43b
00000190: 4836 ec3d 6e51 873d 98be a73d b5ff c8bd
000001a0: d5ba 21be 20ce fd3d ef17 d3bd 8008 f3ba
000001b0: a4df 353d a6ff e0bb 78c0 e9bd 9004 3cbc
000001c0: dd60 c73d 7ca6 c13d 0270 873d 7af2 d3bd
000001d0: 443c c33d 9ae9 02be 896c d53c 974c 35bd
000001e0: 563c 133e 4682 a2bd c322 ba3d 9cbc b83d
000001f0: e204 f6bd f17f 0abc 60d2 f3bc 8eea 12bd
00000200: 7c5b 243d dbca 0bbe 4ac8 86bd f070 00bd
00000210: 7643 223d f8cc cebc 5273 033e 56ba f5bd
00000220: b34f 103e c0d3 273b f48c 37bd 0de1 1bbe
00000230: f018 dc3c 172b 9fbd 57a6 193d 0cb5 fa3d
00000240: 330e 013e d269 a43d 38d7 453d 507e 84bd
00000250: 21d1 1cbe bc29 02be e392 c73d bcce 44bd
00000260: 0d4c 1cbc 1066 103d c5df 013d 5858 f5bd
00000270: 09bc 28be f513 0dbe 12f1 e1bd 87bb aeba
00000280: 9651 253e bce8 1b3e 1585 e73d f10d 223e
00000290: 88de 07be 1c64 023d 815a c0bd ba82 0b3e
000002a0: c648 65bd 6e1a f83c f57c d03d ef38 e0bd
000002b0: e4a0 2d3d 2fb5 c13d 4ecd 7fbc 0fa1 d63d
000002c0: 5e76 d93c 23e7 8c3e 8dc7 2f3c df6d 2c3e
000002d0: fe42 813d 11a1 16be 99b1 edbc 7cd0 003d
000002e0: 21c7 99bd 18a7 23be a485 0ebe 5498 1e3e
000002f0: 5fea 483c e1da 843e 854e 063e ea5a 453c
00000300: b66f b7bd 4a86 b83d bb71 f3bc 5c69 b3bd
00000310: a8ff fcbd e547 d53d d058 023e 734d 603e
00000320: ce24 713e 30f9 073e be0d 30bc aa90 25be
00000330: 78c7 f63d 948d bdbd 7215 1d3e 0cd5 e73d
00000340: a447 01bd cbb6 8a3e 41da 373e d55c 463d
00000350: 8821 bd3d e69d 353e 036e 18bd 18ae a43e
00000360: d4b2 233e a598 633e 9984 ed3d 200c 973d
00000370: 52e6 f43c 0d5d 27be ca84 1a3e eee3 7b3e
00000380: 50e7 ecbc c733 25be fa7a 2a3e cb7d f83d
00000390: fc39 293e 1d19 11be f497 a73e 38f9 e93d
000003a0: ba97 a03d f439 60bd cb3d 323e e39a 133d
000003b0: 6e0b c73d 4429 523d 2e48 b33e 3301 b13c
000003c0: 84e6 d33d 10bd 13be 61af 873d 89f0 d6bb
000003d0: b3e4 fd3d d487 d53d 3517 c43c 47df 4b3e
000003e0: dfed fbbd 40bb 6c3d 0acf 8f3c 01c3 9e3e
000003f0: 93e4 20be c958 77bd dd6b 323e 046f e4bd

StatefulPartitionedCall/sequential_1/dense_8/BiasAdd/ReadVariableOp:0 f4 [88]
-0.14578484 -0.18021907 -0.108225286 -0.06786445 0.0 -0.009665936 -0.11492589 0.053832993
-0.1495929 0.0 0.0 -0.002036746 0.072606966 -0.15449373 -0.0093801655 -0.070235156
-0.07247581 0.0006542718 0.079088934 0.0 0.0 -0.06328453 -0.0545548 0.103933595
-0.14911483 0.0 -0.0034264168 -0.0043403 0.0 0.0 -0.08058853 -0.11910999
-0.048853204 -0.14694816 -0.11846084 -0.015738545 -0.017841967 -0.16253704 0.08474674 -0.16830981
0.07240636 -0.1631054 -0.0063711577 0.0 -0.11928638 -0.0059457584 0.0 -0.124112904
-0.12457686 -0.0054178657 0.0465696 -0.038456865 0.0 0.0 -0.15067391 0.0
-0.090802245 -0.105013855 0.06756732 -0.16586907 0.0042364933 0.094211265 -0.12551063 -0.00302262
-0.07732676 -0.006612478 -0.11234434 0.0502443 0.0020943687 0.0 -0.009382425 -0.11892929
0.0 0.0 -0.06235716 -0.13001879 0.0 -0.12743089 -0.16197927 0.0
0.10694243 -0.084828585 -0.0976555 -0.034385193 0.0 -0.14671089 -0.13084361 -0.10741313
00000000: 9f48 15be 598b 38be 38a5 ddbd 84fc 8abd
00000010: 0000 0000 e05d 1ebc 445e ebbd fc7f 5c3d
00000020: e22e 19be 0000 0000 0000 0000 ed7a 05bb
00000030: f6b2 943d 9b33 1ebe 44af 19bc 73d7 8fbd
00000040: 336e 94bd 7083 2b3a 61f9 a13d 0000 0000
00000050: 0000 0000 529b 81bd db74 5fbd 23db d43d
00000060: 8fb1 18be 0000 0000 bc8d 60bb 1339 8ebb
00000070: 0000 0000 0000 0000 990b a5bd f0ef f3bd
00000080: 4c1a 48bd 9479 16be 999b f2bd 1fee 80bc
00000090: 5129 92bc 1c70 26be b38f ad3d 6859 2cbe
000000a0: c949 943d 1a05 27be 25c5 d0bb 0000 0000
000000b0: 6b4c f4bd a3d4 c2bb 0000 0000 e82e febd
000000c0: 2722 ffbd 5a88 b1bb c4bf 3e3d f284 1dbd
000000d0: 0000 0000 0000 0000 434a 1abe 0000 0000
000000e0: 87f6 b9bd 8111 d7bd bc60 8a3d 95d9 29be
000000f0: 48d2 8a3b d6f1 c03d dc85 00be 2617 46bb
00000100: 7e5d 9ebd 7cad d8bb ca14 e6bd f8cc 4d3d
00000110: ad41 093b 0000 0000 beb8 19bc 3391 f3bd
00000120: 0000 0000 0000 0000 396a 7fbd a523 05be
00000130: 0000 0000 3e7d 02be e5dd 25be 0000 0000
00000140: a204 db3d 9cba adbd 9bff c7bd 7dd7 0cbd
00000150: 0000 0000 613b 16be defb 05be 6afb dbbd

StatefulPartitionedCall/sequential_1/dense_7/MatMul/ReadVariableOp:0 f4 [3, 120]
0.107817605 -0.21592166 0.026992513 0.01864119 0.08306954 0.11965446 -0.046354398 -0.07340115
-0.19185637 -0.006781757 -0.032233715 -0.04808852 0.026393062 0.1132848 0.23086137 -0.07798446
0.097528875 0.19104408 0.19430631 -0.13061598 0.18929327 0.14357893 0.10807561 0.027918901
-0.19733706 -0.24210536 0.0736363 -0.0685316 -0.19615379 -0.12071429 -0.017384514 0.1410201
0.07343149 0.06284966 0.05014722 0.1608884 -0.041656733 -0.2428447 0.13169292 0.067700334
-0.12490439 0.20114104 0.12790269 -0.10968137 -0.18560441 0.12150466 -0.062481657 -0.033523574
-0.019170508 -0.055602744 0.046742376 -0.056704715 0.0390129 -0.1681983 0.054744966 0.2404909
0.027236274 0.090898894 0.027554963 -0.18837863 0.1554821 -0.0036988133 0.16883245 -0.07822709
-0.21512225 -0.013991505 -0.21491225 0.0971994 -0.106489144 -0.06479307 -0.19111416 0.20011549
0.07761368 -0.22075692 0.052789416 0.17959352 -0.029460536 -0.12320854 -0.09622912 0.1061603
-0.08289127 -0.018505946 -0.11117058 0.14646134 0.18644299 -0.18792033 0.14517975 0.03125251
-0.17259209 0.13696033 0.12630531 -0.20632839 -0.18225507 0.06094989 -0.14100379 -0.110233165
0.19925296 0.17292741 0.17084825 -0.16462862 0.008453395 -0.0631742 -0.0028320558 -0.06942249
0.10231916 -0.09432238 -0.0650882 -0.08689405 -0.08499405 0.18117286 0.005804035 0.096775465
-0.18370822 0.13924663 0.13347542 0.20262034 -0.089178264 0.16949084 -0.028338775 0.117158934
-0.14965998 0.054541804 -0.008768326 0.12647712 0.13886358 -0.25987637 -0.038580045 -0.050338537
0.044848904 -0.03578897 -0.13921337 -0.0103278905 -0.90552145 0.12873489 0.20877118 0.1855255
0.03799568 -0.0741173 -0.005480367 0.21853533 -0.06953986 0.08986921 -0.14609078 -1.057858
-0.19075862 0.09032531 -0.41543695 0.12899993 0.1054711 -0.17739095 -0.07329884 -0.17782456
-0.095853515 -0.08231247 -0.06566453 -0.030523457 -0.11469429 0.0906118 -0.18331136 -0.019862972
-0.087788075 -0.25300598 -0.14854783 -0.19012329 0.04029794 0.023296243 -0.21938252 -0.15397847
-0.18569762 -0.048829794 -0.008849012 0.0017827898 0.09294743 -0.19010556 -0.094014406 0.21956195
0.18605489 0.17498781 -0.99198365 0.13063961 -0.21320151 0.1713851 -0.15962298 -0.1351842
-0.08783731 -0.14260396 0.0047470033 -0.13320552 -0.18612082 0.13572805 -0.1565853 0.17538059
-0.17082183 0.15230983 -0.112676434 -0.22526121 0.12953383 -0.12416443 0.1877547 0.19761963
0.1976245 0.026712097 -0.012872323 -0.18873604 0.07344402 0.06166542 -0.1983599 0.058286767
0.1187478 -0.22587979 -0.21249355 0.05137733 0.059361663 0.14358455 -0.13098225 -0.14970338
-0.056348 -0.23788501 -0.00056175963 0.20745689 0.08702419 -0.025994763 0.23799331 0.1590698
0.10893674 -0.14036873 0.15100801 -0.00015033782 -0.048656806 -0.06616062 0.029324342 0.22761339
0.12645645 0.1528673 0.080722 -0.25723332 0.1591341 -0.23156027 -0.019951478 0.12314815
0.41173238 -0.21926111 1.6510991 0.8603463 0.9173185 0.1191018 0.11389084 0.055938706
0.16585024 0.13235594 -0.09423298 -0.19661154 0.15635942 0.6448333 0.78731126 2.1953588
00000000: 7acf dc3d 911a 5dbe 671f dd3c 69b5 983c
00000010: 5d20 aa3d 660d f53d 1cde 3dbd 5853 96bd
00000020: ff75 44be 8039 debb 8007 04bd 78f8 44bd
00000030: 4336 d83c dc01 e83d ec66 6c3e 51b6 9fbd
00000040: 38bd c73d 0fa1 433e 3cf8 463e 32c0 05be
00000050: 18d6 413e 5b06 133e bf56 dd3d 2eb6 e43c
00000060: ba12 4abe 78ea 77be a1ce 963d 4c5a 8cbd
00000070: 8adc 48be 0e39 f7bd f869 8ebc 9367 103e
00000080: 4063 963d 53b7 803d 2c67 4d3d eebf 243e
00000090: 40a0 2abd 48ac 78be 82da 063e 79a6 8a3d
000000a0: dfcd ffbd ebf7 4d3e ecf8 023e a0a0 e0bd
000000b0: 150f 3ebe 6fd7 f83d c4ec 7fbd 0450 09bd
000000c0: 780b 9dbc b4bf 63bd ef74 3f3d 3443 68bd
000000d0: fecb 1f3d 2d3c 2cbe 423c 603d 3f43 763e
000000e0: 9b1e df3c 3329 ba3d f2ba e13c 54e6 40be
000000f0: b336 1f3e ca67 72bb 6ae2 2c3e 8635 a0bd
00000100: 0249 5cbe a03c 65bc f511 5cbe 7b10 c73d
00000110: fb16 dabd 3bb2 84bd 6eb3 43be 13eb 4c3e
00000120: ecf3 9e3d 1a0e 62be b739 583d 5de7 373e
00000130: 3957 f1bc c254 fcbd c613 c5bd 926a d93d
00000140: e6c2 a9bd c899 97bc 67ad e3bd f6f9 153e
00000150: e9ea 3e3e 306e 40be 00aa 143e a202 003d
00000160: fbbb 30be 543f 0c3e 2e56 013e c047 53be
00000170: 13a1 3abe 98a6 793d 4c63 10be edc1 e1bd
00000180: f808 4c3e e213 313e d8f2 2e3e 6894 28be
00000190: 1c80 0a3c 7a61 81bd 039a 39bb 612d 8ebd
000001a0: b58c d13d 182c c1bd f64c 85bd 82f5 b1bd
000001b0: 5c11 aebd 6185 393e c62f be3b 3732 c63d
000001c0: 021e 3cbe ab96 0e3e c8ad 083e b57b 4f3e
000001d0: 18a3 b6bd 028f 2d3e b826 e8bc 06f1 ef3d
000001e0: 7740 19be 3a67 5f3d 06a9 0fbc 3883 013e
000001f0: 4132 0e3e 840e 85be 1c06 1ebd c82f 4ebd
00000200: 7cb3 373d 7497 12bd f38d 0ebe 5036 29bc
00000210: 41d0 67bf 14d3 033e 1dc8 553e 66fa 3d3e
00000220: 5ca1 1b3d d0ca 97bd a794 b3bb bac7 5f3e
00000230: ea6a 8ebd 590d b83d d298 15be e467 87bf
00000240: 3a56 43be 7afc b83d 27b4 d4be 8f18 043e
00000250: 3b01 d83d f9a5 35be b41d 96bd a417 36be
00000260: d94e c4bd 7193 a8bd 207b 86bd 540c fabc
00000270: d7e4 eabd ae92 b93d f9b5 3bbe acb7 a2bc
00000280: 3cca b3bd 008a 81be ec1c 18be aeaf 42be
00000290: 740f 253d c3d7 be3c d0a5 60be 88ac 1dbe
000002a0: 8427 3ebe c001 48bd 72fb 10bc 80ac e93a
000002b0: 395b be3d 08ab 42be a08a c0bd d9d4 603e
000002c0: 2c85 3e3e 0130 333e a4f2 7dbf 64c6 053e
000002d0: 7f51 5abe 937f 2f3e 3574 23be ba6d 0abe
000002e0: 0ce4 b3bd c606 12be c08c 9b3b 0767 08be
000002f0: 7596 3ebe 4bfc 0a3e e657 20be f896 333e
00000300: ebeb 2ebe 1cf7 1b3e e7c2 e6bd e0aa 66be
00000310: 84a4 043e ec49 febd c542 403e cd5c 4a3e
00000320: 145e 4a3e 54d3 da3c 70e6 52bc 0544 41be
00000330: d169 963d e194 7c3d dc1e 4bbe 1bbe 6e3d
00000340: 0c32 f33d 084d 67be e997 59be 0971 523d
00000350: 3725 733d d407 133e 3620 06be d84b 19be
00000360: 29cd 66bd 2198 73be 0d43 13ba 946f 543e
00000370: bd39 b23d f8f2 d4bc 85b4 733e 32e3 223e
00000380: 3a1a df3d d2bc 0fbe d8a1 1a3e 00a4 1db9
00000390: 5c4c 47bd 387f 87bd 9a39 f03c 7c13 693e
000003a0: cd7d 013e 3f89 1c3e 9351 a53d 16b4 83be
000003b0: 0df4 223e 231e 6dbe 4871 a3bc 1935 fc3d
000003c0: 96ce d23e fc85 60be 3757 d33f a83f 5c3f
000003d0: 63d5 6a3f a5eb f33d 9a3f e93d fc1f 653d
000003e0: a5d4 293e 5188 073e 38fd c0bd 8954 49be
000003f0: af1c 203e cc13 253f 3b8d 493f c280 0c40

StatefulPartitionedCall/sequential_1/dense_7/BiasAdd/ReadVariableOp:0 f4 [120]
0.08966704 -0.006053436 -0.17568159 -0.15032172 -0.1403736 0.0805404 0.0 0.0
0.0 0.0 0.0 0.0 0.019070946 -0.13935506 -0.14188942 -0.11592565
-0.13507557 0.10452827 -0.16139242 -0.056003 0.14117958 -0.16920342 0.09450476 0.033450518
0.0 -0.05153613 0.051632635 -0.07722751 -0.053559776 0.0 0.0 0.12815906
0.096310295 0.1183667 0.114006355 -0.17082098 0.0 -0.07117016 0.05459802 -0.19209318
0.0 0.069390215 0.07060306 0.0 0.0 -0.15591556 0.0 0.0
0.0 0.0 -0.180408 0.0 -0.13706587 0.0 0.09191427 -0.13806777
-0.12144851 -0.13116874 0.029763747 -0.028210038 0.111634806 -0.08449552 0.08140249 0.0
0.0 0.0 0.0 0.063337974 0.0 -0.07254422 0.0 -0.16993059
0.06920401 -0.071999684 -0.03632748 0.12690216 -0.15629919 0.0 -0.09099331 -0.14324656
-0.09550506 -0.14344744 0.0 0.08975416 -0.16376297 -0.036434274 0.092301436 -0.19192387
-0.052171722 0.09665572 0.07073371 -0.007966189 -0.03607827 -0.1241696 0.0 0.0
-0.16243729 0.083579846 -0.13873102 -0.054015234 -0.106841564 0.0 -0.06568176 -0.11229279
-0.14536653 0.0 -0.13136932 0.0 0.0 0.122964226 -0.17499578 -0.13218836
-0.040207986 -0.12508376 -0.13488485 0.07416021 -0.04219695 0.09791435 0.0 -0.1208488
00000000: 5aa3 b73d e75b c6bb e0e5 33be f0ed 19be
00000010: 19be 0fbe 5ef2 a43d 0000 0000 0000 0000
00000020: 0000 0000 0000 0000 0000 0000 0000 0000
00000030: ac3a 9c3c 18b3 0ebe 764b 11be 6d6a edbd
00000040: 4051 0abe eb12 d63d 0e44 25be 6763 65bd
00000050: 6191 103e a943 2dbe b68b c13d 6903 093d
00000060: 0000 0000 8d17 53bd be7c 533d 7529 9ebd
00000070: 7f61 5bbd 0000 0000 0000 0000 213c 033e
00000080: 553e c53d 3e6a f23d 2a7c e93d b2eb 2ebe
00000090: 0000 0000 a9c1 91bd 2ca2 5f3d 13b4 44be
000000a0: 0000 0000 751c 8e3d 5698 903d 0000 0000
000000b0: 0000 0000 54a8 1fbe 0000 0000 0000 0000
000000c0: 0000 0000 0000 0000 e0bc 38be 0000 0000
000000d0: ff5a 0cbe 0000 0000 8c3d bc3d a361 0dbe
000000e0: ffb9 f8bd 1951 06be 1ad3 f33c bd18 e7bc
000000f0: caa0 e43d fd0b adbd 59b6 a63d 0000 0000
00000100: 0000 0000 0000 0000 0000 0000 57b7 813d
00000110: 0000 0000 1092 94bd 0000 0000 4902 2ebe
00000120: d5ba 8d3d 9274 93bd 20cc 14bd a4f2 013e
00000130: e50c 20be 0000 0000 b35a babd 3aaf 12be
00000140: 2898 c3bd e3e3 12be 0000 0000 07d1 b73d
00000150: 7bb1 27be 1b3c 15bd 8908 bd3d b187 44be
00000160: 04b2 55bd 6ff3 c53d d6dc 903d 9e84 02bc
00000170: cfc6 13bd a24c febd 0000 0000 0000 0000
00000180: f655 26be e92b ab3d 810f 0ebe 143f 5dbd
00000190: c0cf dabd 0000 0000 2984 86bd c3f9 e5bd
000001a0: f7da 14be 0000 0000 ae85 06be 0000 0000
000001b0: 0000 0000 abd4 fb3d 1832 33be 635c 07be
000001c0: 21b1 24bd f515 00be 411f 0abe 4fe1 973d
000001d0: b6d6 2cbd 5287 c83d 0000 0000 937f f7bd

StatefulPartitionedCall/sequential_1/dense_13/MatMul/ReadVariableOp:0 f4 [16, 1]
0.2854189 -0.11190912 -0.032457016 -0.4371602 0.5237196 0.60854304 0.48788625 0.49718443
0.18414283 -0.36648202 0.3836417 -0.41009596 0.6131274 -0.10260459 -0.4828676 0.310308
00000000: 6d22 923e 9c30 e5bd a6f1 04bd 76d3 dfbe
00000010: 7d12 063f 7ac9 1b3f 3acc f93e f58e fe3e
00000020: f08f 3c3e 88a3 bbbe af6c c43e 19f8 d1be
00000030: ebf5 1c3f 5b22 d2bd 6c3a f7be b1e0 9e3e

StatefulPartitionedCall/sequential_1/dense_12/MatMul/ReadVariableOp:0 f4 [52, 16]
-0.31729633 0.017506719 0.026629291 0.16449054 -0.16503352 -0.2158216 -0.32721636 -0.13200653
-0.17767766 -0.06360644 -0.20174178 0.12214513 -0.26677686 0.12638244 0.24450667 -0.0064031896
0.05291938 0.1398214 -0.06263021 -0.03869591 -0.34524664 -0.18129912 0.08243013 0.082664795
-0.19906175 0.015499332 0.35318637 0.22577865 -0.47437933 0.15138574 0.24755794 -0.1392543
0.11182645 0.007029659 0.25604394 0.27221704 0.03576495 0.23532423 -0.19036257 0.28127193
0.10006658 -0.285968 -0.18080427 0.18357542 0.278603 -0.15088035 0.058869477 0.022686733
-0.12677643 0.05332897 -0.13761371 -0.029595029 0.24946351 -0.026569705 0.10799252 0.26056948
-0.2849787 0.26063856 -0.2839838 0.16278656 0.2416755 -0.12879048 -0.051364582 0.04472747
-0.14547922 -0.21035114 -0.05054989 -0.053053465 -0.0067944825 -0.23654044 -0.058253463 0.14708218
-0.109161295 0.2622903 -0.24904174 0.13231727 0.25100738 -0.2015063 0.08931313 -0.15325014
-0.1803553 0.085552566 -0.001851421 0.19516201 0.14929393 -0.16646 -0.25588447 0.21773244
0.29442748 -0.13149439 0.12462318 -0.25503123 -0.08882595 0.1489399 0.23911096 -0.21029258
-0.106138036 0.19803464 0.24186589 0.11422923 -0.36166054 -0.33138907 -0.1564681 0.20441867
0.2349772 0.00538435 0.056605928 0.24416061 0.019157816 -0.024798173 0.23559853 -0.23217736
-0.2791612 0.13136417 0.09236431 -0.067573816 0.27752286 0.1200974 -0.24266341 -0.21707045
0.22091609 -0.047132358 0.19939548 0.013128638 0.039681643 0.295326 0.017793894 0.063433975
0.27342793 -0.121544324 0.25174576 0.1452995 0.32502058 0.13821252 -0.07653435 0.14995286
0.033607256 0.009968787 -0.13489588 -0.0942891 0.013206626 -0.2754699 0.1296028 0.26593176
0.14030293 -0.12128055 0.0034127075 -0.20135283 0.20659003 -0.21130978 -0.174204 -0.064202465
0.17723528 0.23755318 -0.08030451 -0.05820564 -0.03979399 0.18779819 0.15697853 -0.21011622
-0.048468962 0.034847617 0.18771625 -0.05398826 -0.12749396 -0.25749663 -0.079775125 0.20087983
-0.13890907 -0.14220366 0.25813764 0.09624401 0.31813145 0.2361359 0.038189832 0.2621875
0.24916863 0.0020860434 0.14163277 0.03969112 -0.26993227 0.16706163 -0.15843543 0.19362709
0.11905387 -0.13544025 0.007413745 -0.10436773 -0.07164572 -0.0747581 -0.17352106 0.062845886
-0.09536848 -0.24188371 -0.104786396 0.09428901 0.28642938 -0.245135 0.12535632 0.014970056
-0.15050685 0.2064456 -0.25205958 -0.006817425 0.16229692 -0.020522237 -0.021213222 0.14087646
-0.1546154 -0.12690878 -0.1483304 0.089470856 -0.12121033 0.109358355 -0.18371043 -0.21604906
0.2844411 -0.117313 -0.13899212 -0.16254063 0.2951563 -0.2599337 -0.084812276 -0.13161463
0.23219676 -0.020654876 -0.22145084 0.05466341 0.2790322 -0.079782315 0.25770494 -0.19849814
-0.053458497 -0.134937 0.06581287 -0.23078935 -0.31349114 -0.2463986 -0.2820866 0.12171799
0.1736219 -0.08870123 -0.284746 0.16465728 0.13097534 0.117359996 0.10301222 -0.2046116
0.14253432 -0.17250198 0.25001448 -0.16972171 -0.20651446 -0.2625495 0.12554157 -0.09923287
00000000: aa74 a2be 406a 8f3c ac25 da3c 3570 283e
00000010: 8cfe 28be 5600 5dbe e788 a7be b82c 07be
00000020: 22f1 35be 1844 82bd 6695 4ebe 3a27 fa3d
00000030: fa96 88be 666a 013e f55f 7a3e d9d1 d1bb
00000040: fec1 583d 572d 0f3e 4444 80bd 9a7f 1ebd
00000050: 2bc4 b0be 7aa6 39be 21d1 a83d 294c a93d
00000060: d8d6 4bbe e9f0 7d3c d8d4 b43e 8532 673e
00000070: d9e1 f2be dd04 1b3e d47f 7d3e ae98 0ebe
00000080: 4405 e53d 0e59 e63b 3118 833e 0860 8b3e
00000090: 457e 123d d6f8 703e 68ee 42be e002 903e
000000a0: b5ef cc3d 666a 92be c124 39be 32fb 3b3e
000000b0: 0da5 8e3e 6180 1abe 1f21 713d 87d9 b93c
000000c0: aed1 01be 7a6f 5a3d 9cea 0cbe 4671 f2bc
000000d0: 5d73 7f3e b6a8 d9bc 2f2b dd3d 5d69 853e
000000e0: bae8 91be 6b72 853e 5366 91be 85b1 263e
000000f0: c879 773e a7e1 03be ab63 52bd 2734 373d
00000100: 81f8 14be 4a66 57be 670d 4fbd 974e 59bd
00000110: 40a4 debb a837 72be 2f9b 6ebd b69c 163e
00000120: f58f dfbd ea4a 863e cc04 7fbe 2e7e 073e
00000130: 0a84 803e ab57 4ebe cde9 b63d 9bed 1cbe
00000140: 0faf 38be 2f36 af3d 61ab f2ba 8dd8 473e
00000150: 82e0 183e 7e74 2abe 4a03 83be 41f5 5e3e
00000160: 33bf 963e 77a6 06be 703a ff3d 7493 82be
00000170: 61ea b5bd b383 183e 81d9 743e f056 57be
00000180: e65e d9bd 98c9 4a3e b1ab 773e 04f1 e93d
00000190: 922b b9be d4ab a9be 2c39 20be 2153 513e
000001a0: dd9d 703e 346f b03b 9edb 673d 3d05 7a3e
000001b0: daf0 9c3c 8a25 cbbc be40 713e e7bf 6dbe
000001c0: 38ee 8ebe 5484 063e 8029 bd3d 2464 8abd
000001d0: 7a17 8e3e a0f5 f53d c27c 78be b747 5ebe
000001e0: d437 623e dc0d 41bd 542e 4c3e 8019 573c
000001f0: 3889 223d f834 973e 80c4 913c ace9 813d
00000200: bffe 8b3e 3bec f8bd d2e4 803e 64c9 143e
00000210: 1969 a63e 9587 0d3e 0bbe 9cbd 3e8d 193e
00000220: c3a7 093d 2054 233c 2522 0abe a51a c1bd
00000230: 9b60 583c 640a 8dbe 99b6 043e 3528 883e
00000240: 92ab 0f3e f061 f8bd bba7 5f3b 702f 4ebe
00000250: 568c 533e 9761 58be 8962 32be 957c 83bd
00000260: 2a7d 353e 2441 733e b176 a4bd 0a69 6ebd
00000270: 06ff 22bd 2b4e 403e fbbe 203e b528 57be
00000280: 6487 46bd 60bc 0e3d b038 403e cb22 5dbd
00000290: c78d 02be 99d6 83be 2461 a3bd 71b3 4d3e
000002a0: 2e3e 0ebe d69d 11be 9e2a 843e 941b c53d
000002b0: 20e2 a23e 9ccd 713e f16c 1c3d 713d 863e
000002c0: 1026 7f3e 00b6 083b 2e08 113e 2893 223d
000002d0: 9034 8abe 3412 2b3e e63c 22be 2e46 463e
000002e0: 84d2 f33d d9b0 0abe 00ef f23b c0be d5bd
000002f0: feba 92bd c61a 99bd 81af 31be 58b5 803d
00000300: 8d50 c3bd 5db0 77be 409a d6bd 991a c13d
00000310: dfa6 923e ab04 7bbe 685d 003e f744 753c
00000320: 781e 1abe 7a66 533e f40d 81be b564 dfbb
00000330: 2a31 263e 401e a8bc 5ac7 adbc eb41 103e
00000340: 8053 1ebe 60f4 01be ede3 17be 7f3c b73d
00000350: 1f3d f8bd 46f7 df3d 961e 3cbe f73b 5dbe
00000360: 44a2 913e cc41 f0bd f353 0ebe 0d71 26be
00000370: ba1e 973e 0816 85be 0fb2 adbd fcc5 06be
00000380: fdc4 6d3e 6a34 a9bc 02c4 62be bde6 5f3d
00000390: 4fdd 8e3e e964 a3bd e7f1 833e 1943 4bbe
000003a0: 4cf7 5abd ed2c 0abe e6c8 863d 0b54 6cbe
000003b0: e981 a0be ea4f 7cbe a86d 90be 4847 f93d
000003c0: f0c9 313e fea8 b5bd 3aca 91be eb9b 283e
000003d0: 661e 063e 705a f03d 12f8 d23d b485 51be
000003e0: 84f4 113e 5ca4 30be e601 803e 87cb 2dbe
000003f0: 8778 53be e36c 86be f88d 003e 9a3a cbbd

StatefulPartitionedCall/sequential_1/dense_12/BiasAdd/ReadVariableOp:0 f4 [16]
-0.012033458 0.02497496 0.029902391 0.04285587 -0.058329802 -0.08916637 -0.03866203 -0.024419883
-0.026468007 -0.019851116 0.01658323 -0.025967604 -0.061278533 0.029183006 0.04131065 -0.05214831
00000000: fb27 45bc 4a98 cc3c dcf5 f43c a389 2f3d
00000010: 3beb 6ebd dc9c b6bd 145c 1ebd 350c c8bc
00000020: 6fd3 d8bc cf9e a2bc 8ed9 873c 03ba d4bc
00000030: 33ff 7abd 3311 ef3c 5b35 293d 7799 55bd

StatefulPartitionedCall/sequential_1/dense_11/MatMul/ReadVariableOp:0 f4 [64, 52]
0.03448167 0.26826823 0.12360418 -0.051046625 -0.17409539 -0.011494305 0.23096068 -0.025269732
0.25653437 0.11289008 -0.17012757 -0.050674096 -0.028614612 -0.098465584 -0.07528573 -0.024679106
-0.024432812 -0.13474382 -0.123080164 0.12388414 0.0433818 -0.25058162 0.22510052 -0.18315692
0.19023646 -0.1923413 0.0109806005 0.11648443 0.24200483 0.19877747 0.21717209 0.057748254
-0.2527515 -0.04773718 -0.08461155 0.14928065 0.022925537 0.14258738 0.080777295 -0.07138983
-0.174983 0.11139131 -0.020886429 -0.050218087 -0.17855933 0.13177231 0.03967261 0.005630515
-0.088716455 -0.12511027 -0.09631399 -0.14457645 0.21077514 0.0015860349 -0.024883986 0.0961099
-0.07467283 -0.008679315 -0.21234539 0.0083076805 0.1758723 0.11584216 -0.07430217 0.13773665
0.19254893 0.18105367 0.20398805 -0.07557544 -0.19410881 0.103328705 0.007183075 0.08706701
-0.037002206 -0.17601268 0.07467869 0.030743748 0.20922446 0.18117571 0.089268476 0.049497247
0.04382071 -0.15442368 0.026676625 0.17920059 -0.095563695 0.22108132 0.0017131865 0.14756611
0.019482091 0.10540661 -0.09233448 -0.16888984 0.0461286 -0.06951825 0.11794683 0.055040598
0.059545428 -0.12078343 0.20046997 0.020075396 0.16787955 -0.013557091 0.084754705 0.15027463
-0.10057931 0.021522898 -0.03445375 0.04507964 0.061124086 0.16521952 0.102764785 0.15224168
-0.00014843946 -0.15447406 -0.07439804 -0.18597357 -0.082316674 -0.17740197 -0.022964912 0.01085882
0.18916744 -0.08221353 -0.029372344 -0.038759246 0.018321052 -0.05951664 -0.06476978 0.27274555
-0.064432785 0.093709566 -0.0951812 -0.11504589 0.09157123 0.10618375 -0.0011514683 0.08750032
0.041083828 -0.02580083 0.14434114 0.13923563 0.040108334 0.0010492655 -0.2551504 -0.07112986
0.22126806 -0.101350985 -0.06592007 0.11737852 0.17446303 -0.17199352 -0.09495425 -0.04424081
0.121912025 -0.082851686 0.1383969 -0.103515126 0.07559377 -0.16386321 -0.10416477 0.12738216
-0.009080842 -0.1466618 -0.080636814 0.14276332 -0.038174704 -0.00022542455 -0.196159 0.009976134
0.10907663 -0.18339007 -0.06385762 -0.11634506 0.1029436 -0.106597334 0.05686623 -0.08654649
0.12806857 -0.024666652 -0.059028186 0.22609246 -0.16207406 0.098546624 0.04419002 -0.017905436
-0.19110285 0.09068896 0.28851545 0.11481653 -0.12914073 0.21057369 0.010078236 0.17561959
0.06285003 0.1395344 -0.0026550812 -0.023337916 0.14764977 -0.16347621 0.26100993 0.04348463
-0.20290607 -0.072731465 -0.12561893 0.27272063 0.10888556 0.06271875 -0.12896262 -0.18916374
-0.023547055 -0.37116063 0.19708839 -0.21609206 -0.19732118 -0.21853586 -0.25642136 -0.08989182
0.22356895 0.008840175 -0.11622551 -0.06745434 0.019922893 0.161246 -0.14480038 -0.04114086
0.09400585 -0.28552502 -0.14271596 -0.13441505 0.19451252 -0.12582198 -0.14823495 0.26229522
-0.119015746 0.03179936 0.18785919 0.11846249 -0.13264386 -1.4000791e-05 0.26853687 -0.039543476
0.12870541 0.06815267 -0.15000942 0.22599006 -0.1273484 -0.19274737 -0.19816764 -0.0930132
0.20411423 -0.17407443 0.25787124 0.07468735 -0.13117406 0.17509359 -0.03216591 -0.022296725
00000000: a73c 0d3d 745a 893e 3024 fd3d 4416 51bd
00000010: 1046 32be 9c52 3cbc f580 6c3e 7802 cfbc
00000020: 7958 833e ea32 e73d ec35 2ebe a48f 4fbd
00000030: 3169 eabc 53a8 c9bd 682f 9abd d62b cabc
00000040: 5227 c8bc 49fa 09be 7411 fcbd f8b6 fd3d
00000050: 1db1 313d 3c4c 80be c080 663e 7d8d 3bbe
00000060: 59cd 423e 1ef5 44be fae7 333c 648f ee3d
00000070: 1dd0 773e 528c 4b3e 5c62 5e3e 6f89 6c3d
00000080: a568 81be 1088 43bd d248 adbd 07dd 183e
00000090: 56ce bb3c 6d02 123e 916e a53d d534 92bd
000000a0: be2e 33be 2121 e43d 041a abbc 7bb1 4dbd
000000b0: 42d8 36be 52ef 063e bf7f 223d 2f80 b83b
000000c0: f9b0 b5bd e81c 00be 4540 c5bd d90b 14be
000000d0: 70d5 573e 80e2 cf3a 80d9 cbbc 44d5 c43d
000000e0: 12ee 98bd b033 0ebc 1271 59be f01c 083c
000000f0: de17 343e a83e ed3d bc2b 98bd d60a 0d3e
00000100: 8c2b 453e 2266 393e 3ee2 503e 4cc7 9abd
00000110: 76c4 46be 009e d33d 0060 eb3b 3050 b23d
00000120: a08f 17bd ab3c 34be 24f1 983d 50da fb3c
00000130: f03e 563e 2086 393e 64d2 b63d a0bd 4a3d
00000140: 587d 333d 3e21 1ebe f088 da3c 5c80 373e
00000150: e6b6 c3bd 2463 623e 008d e03a 921b 173e
00000160: e898 9f3c 6cdf d73d dc19 bdbd 75f1 2cbe
00000170: 58f1 3c3d 965f 8ebd 1c8e f13d 4072 613d
00000180: e8e5 733d 4e5d f7bd 0048 4d3e 2875 a43c
00000190: 9ee8 2b3e 901e 5ebc e093 ad3d 98e1 193e
000001a0: 86fc cdbd ca50 b03c 601f 0dbd 6ea5 383d
000001b0: 405d 7a3d 4e2f 293e 5876 d23d 3ee5 1b3e
000001c0: 6aa6 1bb9 732e 1ebe 005e 98bd db6f 3ebe
000001d0: a595 a8bd dda8 35be e920 bcbc 31e9 313c
000001e0: 1cb5 413e 915f a8bd 459e f0bc 04c2 1ebd
000001f0: 0816 963c b8c7 73bd 05a6 84bd 4ea5 8b3e
00000200: 56f5 83bd cdea bf3d 5cee c2bd 2e9d ebbd
00000210: b289 bb3d de76 d93d ddec 96ba 5e33 b33d
00000220: 8447 283d 435c d3bc 2ace 133e c993 0e3e
00000230: a348 243d 8287 893a 13a3 82be 88ac 91bd
00000240: 1894 623e 1b91 cfbd 1a01 87bd 2664 f03d
00000250: 70a6 323e 121f 30be 6077 c2bd da35 35bd
00000260: 03ad f93d 25ae a9bd ebb7 0d3e bdff d3bd
00000270: e8d0 9a3d c2cb 27be 5754 d5bd 7870 023e
00000280: d0c7 14bc 832e 16be ea24 a5bd 8c30 123e
00000290: 145d 1cbd f15f 6cb9 e8dd 48be f072 233c
000002a0: 9163 df3d 9bca 3bbe c9c7 82bd 5246 eebd
000002b0: 18d4 d23d b44f dabd 90ec 683d 493f b1bd
000002c0: 6824 033e b811 cabc 8ac7 71bd c884 673e
000002d0: bef6 25be d0d2 c93d 9800 353d 6cae 92bc
000002e0: 77b0 43be 22bb b93d 4cb8 933e ee24 eb3d
000002f0: 783d 04be a1a0 573e 301f 253c 9fd5 333e
00000300: 84b7 803d 1be2 0e3e df00 2ebb 282f bfbc
00000310: 8031 173e 4f66 27be 18a3 853e f01c 323d
00000320: 9cc6 4fbe 3cf4 94bd 40a2 00be 0aa2 8b3e
00000330: 64ff de3d b072 803d c70e 04be 24b4 41be
00000340: c1e5 c0bc c408 bebe 8ad1 493e 3d47 5dbe
00000350: 900e 4abe ddc7 5fbe a949 83be 3419 b8bd
00000360: 42ef 643e 62d6 103c a407 eebd 8025 8abd
00000370: 5635 a33c ac1d 253e 8d46 14be 5283 28bd
00000380: 2486 c03d 5630 92be 2224 12be 19a4 09be
00000390: 4a2e 473e 7ad7 00be e7ca 17be 8f4b 863e
000003a0: 87be f3bd 0c40 023d 295e 403e 769c f23d
000003b0: cbd3 07be f1e4 6ab7 aa7d 893e 57f8 21bd
000003c0: 5acb 033e a193 8b3d 129c 19be f069 673e
000003d0: 9e67 02be 915f 45be 75ec 4abe b47d bebd
000003e0: 5203 513e 9140 32be b307 843e aef5 983d
000003f0: 7e52 06be bc4b 333e 67c0 03bd 9fa7 b6bc

StatefulPartitionedCall/sequential_1/dense_11/BiasAdd/ReadVariableOp:0 f4 [52]
-0.0011535764 0.033753134 -0.08504577 -0.042355046 -0.013504488 0.025971813 0.05677606 0.0
-0.07653792 -0.050443076 -0.009029947 0.0 -0.012117211 -0.03897188 0.0050346274 -0.022207616
-0.010755603 0.037580714 -0.00993827 0.0055467924 -0.0024609698 -0.034476683 -0.103320405 -0.06283917
0.031451467 -0.00782519 -0.03600321 -0.078964725 0.048407774 -0.06621265 -0.051933378 -0.08421319
-0.031157164 -0.118679576 -0.05960483 -0.08898567 -0.0146473665 -0.06817023 0.0063024014 -0.044368427
-0.002702525 -0.012163844 -0.03837361 -0.038021162 0.0 -0.0026739938 -0.07760072 -0.09547284
-0.004104451 -0.007604521 -0.0923293 0.0
00000000: 9a33 97ba ba40 0a3d 7a2c aebd 7c7c 2dbd
00000010: ee41 5dbc d7c2 d43c 048e 683d 0000 0000
00000020: eabf 9cbd 669d 4ebd 58f2 13bc 0000 0000
00000030: 4487 46bc faa0 1fbd 84f9 a43b bfec b5bc
00000040: 4538 30bc 3cee 193d 20d4 22bc dec1 b53b
00000050: 3948 21bb 6c37 0dbd a699 d3bd d3b1 80bd
00000060: 41d3 003d 3a35 00bc 1a78 13bd 42b8 a1bd
00000070: 3b47 463d 7f9a 87bd 18b8 54bd f777 acbd
00000080: 4f3d ffbc 470e f3bd 3224 74bd 1e3e b6bd
00000090: 82fb 6fbc d59c 8bbd 6084 ce3b abbb 35bd
000000a0: d81c 31bb dc4a 47bc a52d 1dbd 14bc 1bbd
000000b0: 0000 0000 2c3e 2fbb 20ed 9ebd 4487 c3bd
000000c0: a17e 86bb 582f f9bb 2517 bdbd 0000 0000

StatefulPartitionedCall/sequential_1/dense_10/MatMul/ReadVariableOp:0 f4 [72, 64]
-0.171726 0.084767744 0.057898298 0.17994012 0.13632946 0.18038553 0.1312065 -0.091819756
-0.14581329 0.12632221 0.05564578 0.13709916 0.050841257 -0.067446545 0.053749934 -0.07351574
0.11405118 -0.11546826 -0.025015 0.17768882 0.14785771 -0.17957681 -0.12396181 -0.14497271
0.029264584 -0.18612455 -0.11628303 0.17705588 0.107772484 0.04173638 0.05934818 0.052363977
0.043321766 -0.05965762 0.06460713 -0.0015308261 -0.19307756 -0.13994133 0.15499227 -0.009956196
-0.103478804 -0.12104163 0.11248447 -0.20679666 0.04566659 0.2074201 0.018072665 -0.08886106
-0.14461952 0.059912756 -0.014884608 0.083877474 0.14201756 0.15021251 -0.018934965 0.1877958
-0.18521914 -0.15380281 -0.00911063 -0.18029578 0.16009195 -0.1710934 0.19364966 -0.048541576
-0.15711996 0.065467164 -0.22249804 -0.22155693 -0.21457094 -0.04140647 -0.2719435 0.03557637
0.22027268 -0.16858298 -0.06479427 0.0071924888 0.053315513 -0.28058782 -0.13349 -0.14138633
0.046561077 0.114382185 -0.41334796 -0.18136705 -0.086921945 -0.23100555 -0.26688847 -0.0072836243
0.021543372 0.054706696 -0.08697157 -0.16722788 -0.2564404 -0.08044893 0.114415154 0.119301334
0.0027828696 -0.17643023 0.037669837 -0.06501477 -0.11364187 -0.004521254 0.1612721 -0.11207859
-0.12779887 -0.23667905 -0.029350093 0.1018564 -0.13350593 0.073237315 -0.079628 -0.22825433
-0.081183575 -0.21332885 -0.35337833 0.16794188 0.0041602305 0.111235514 -0.114124574 -0.14916356
-0.06712426 -0.0074810833 -0.08566165 -0.18090929 0.013890114 0.1734537 0.16108645 0.1950009
0.21644726 0.110835955 0.055934217 -0.151816 -0.074700736 0.13223383 0.11790127 -0.13636415
0.14287966 0.21634237 -0.027328178 0.17711139 -0.13860182 0.22444317 -0.07970777 -0.11571314
-0.024080835 0.10575709 0.26298285 0.22750668 -0.0816516 0.056670107 0.004230377 0.17342378
-0.12835714 0.109535225 -0.06935516 0.1957945 0.06425721 -0.08228407 -0.13878866 -0.018766806
-0.2018438 -0.16580154 -0.057031695 -0.13802758 0.1007434 -0.043364167 -0.14883092 -0.20786463
-0.092730395 0.055099104 -0.12345657 -0.02226345 0.033913527 0.0030756295 -0.07687911 0.122098565
0.13008137 0.057800353 0.121188104 0.17763159 0.11438725 0.12234695 -0.21282981 0.033742256
0.015502638 -0.14873147 -0.00018775444 0.049875665 -0.15865174 -0.051552773 0.0049998313 0.03020296
-0.19121008 -0.19545431 -0.20290133 -0.17019802 -0.22170618 0.18250045 0.022550663 0.03442713
-0.08393689 -0.08267457 0.01703535 -0.095101625 -0.16665113 -0.2997435 0.06913267 -0.18016362
0.09219328 -0.053514503 -0.03067587 -0.28589046 0.20024376 0.15521131 0.11618189 -0.06640054
0.08962541 -0.1836111 0.18961363 -0.24909528 0.1266483 0.18804555 -0.18845944 0.055971637
0.11784421 -0.14690533 0.06302338 -0.30590516 0.013015553 0.103229545 -0.049881414 -0.1079431
0.041680645 -0.13995874 -0.06741107 -0.114675626 -0.0036633033 -0.084753916 0.08138469 -0.0018484705
-0.06446 -0.020727595 -0.1375573 -0.07069951 0.0038315372 -0.021362588 0.17310883 -0.18718956
0.12154655 -0.119768105 -0.19863456 0.1133754 -0.24549691 -0.10681116 0.029785246 -0.17710447
00000000: f1d8 2fbe b69a ad3d c426 6d3d 3942 383e
00000010: f399 0b3e fcb6 383e ff5a 063e ff0b bcbd
00000020: 1450 15be 9c5a 013e d4ec 633d b963 0c3e
00000030: ec3e 503d 6a21 8abd e428 5c3d 6c8f 96bd
00000040: aa93 e93d a07a ecbd 42ec ccbc 0ff4 353e
00000050: 0368 173e fce2 37be b0df fdbd ba73 14be
00000060: 48bc ef3c 6f97 3ebe cc25 eebd 234e 353e
00000070: d2b7 dc3d c4f3 2a3d 1417 733d 9c7b 563d
00000080: 2a72 313d 8c5b 74bd be50 843d 00a6 c8ba
00000090: 20b6 45be c84c 0fbe 4bb6 1e3e 501f 23bc
000000a0: b2ec d3bd ade4 f7bd 425e e63d 81c2 53be
000000b0: e40c 3b3d ef65 543e 200d 943c cafc b5bd
000000c0: 2417 14be 1467 753d 92de 73bc f4c7 ab3d
000000d0: 0d6d 113e 4fd1 193e 801d 9bbc 8b4d 403e
000000e0: 16aa 3dbe 7c7e 1dbe c044 15bc 759f 38be
000000f0: 25ef 233e 1c33 2fbe 194c 463e 88d3 46bd
00000100: 0ee4 20be a613 863d 87d6 63be d2df 62be
00000110: 7cb8 5bbe d599 29bd 2e3c 8bbe 87b8 113d
00000120: 298f 613e 04a1 2cbe dcb2 84bd f8ae eb3b
00000130: 5e61 5a3d 35a9 8fbe 9ab1 08be 94c7 10be
00000140: d4b6 3e3d 3541 ea3d 58a2 d3be 49b8 39be
00000150: 2204 b2bd b88c 6cbe 9ba5 88be 78ab eebb
00000160: ba7b b03c 2114 603d 271e b2bd c93d 2bbe
00000170: 284c 83be 69c2 a4bd 7e52 ea3d 4254 f43d
00000180: ce60 363b 20aa 34be b04b 1a3d 7726 85bd
00000190: 12bd e8bd 0727 94bb 8324 253e 7689 e5bd
000001a0: b5dd 02be fe5b 72be 9b6f f0bc 179a d03d
000001b0: c7b5 08be 72fd 953d 0114 a3bd 81bb 69be
000001c0: 9343 a6bd e172 5abe 01ee b4be f5f8 2b3e
000001d0: 8b52 883b 72cf e33d 25ba e9bd 55be 18be
000001e0: 7278 89bd e023 f5bb 606f afbd 4940 39be
000001f0: 5c93 633c d99d 313e d9f3 243e 51ae 473e
00000200: 5aa4 5d3e f6fd e23d 471b 653d a775 1bbe
00000210: b3fc 98bd 4e68 073e 3976 f13d 0ba3 0bbe
00000220: 0c4f 123e db88 5d3e 58df dfbc b05c 353e
00000230: a3ed 0dbe 6ed4 653e d43d a3bd 03fb ecbd
00000240: 2c45 c5bc 2c97 d83d b0a5 863e 83f7 683e
00000250: f438 a7bd ea1e 683d f99e 8a3b 0196 313e
00000260: 0e70 03be 0154 e03d 140a 8ebd 5a7e 483e
00000270: 4999 833d 8d84 a8bd 9d1e 0ebe d8bc 99bc
00000280: 24b0 4ebe e1c7 29be 119a 69bd 1a57 0dbe
00000290: 8e52 ce3d a09e 31bd 2267 18be 77da 54be
000002a0: 6fe9 bdbd 99af 613d ccd6 fcbd d761 b6bc
000002b0: e9e8 0a3d 8090 493b cb72 9dbd d00e fa3d
000002c0: 0d34 053e 10c0 6c3d 7831 f83d 0ee5 353e
000002d0: dd43 ea3d 0a91 fa3d 0ff0 59be 5235 0a3d
000002e0: c7fe 7d3c 104d 18be f3df 44b9 6d4a 4c3d
000002f0: 9a75 22be 0029 53bd a0d5 a33b 336c f73c
00000300: 93cc 43be 2d25 48be 5ec5 4fbe 6448 2ebe
00000310: f206 63be 66e1 3a3e 2bbc b83c 7603 0d3d
00000320: 1be7 abbd 4951 a9bd b88d 8b3c a4c4 c2bd
00000330: 98a6 2abe fb77 99be 6e95 8d3d d07c 38be
00000340: d5cf bc3d 0632 5bbd f64b fbbc 3c60 92be
00000350: b30c 4d3e b7ef 1e3e c5f0 ed3d 02fd 87bd
00000360: 878d b73d 8c04 3cbe 132a 423e d512 7fbe
00000370: 18b0 013e 038f 403e 83fb 40be 8442 653d
00000380: 4e58 f13d 5a6e 16be 6712 813d 9a9f 9cbe
00000390: 303f 553c 036a d33d 7450 4cbd 4611 ddbd
000003a0: 53b9 2a3d 5851 0fbe d10e 8abd 0edb eabd
000003b0: 0814 70bb 7693 adbd 04ad a63d 6148 f2ba
000003c0: 9b03 84bd ebcc a9bc d2db 0cbe e8ca 90bd
000003d0: 871a 7b3b 9800 afbc 7143 313e 9fae 3fbe
000003e0: 66ed f83d fb48 f5bd dc66 4bbe 5d31 e83d
000003f0: 8b63 7bbe cfbf dabd 3000 f43c e05a 35be

StatefulPartitionedCall/sequential_1/dense_10/BiasAdd/ReadVariableOp:0 f4 [64]
-0.07530294 0.0 -0.004131772 0.0023770737 -0.10914652 0.014276324 -0.1489929 0.045160096
-0.012584361 -0.13740629 0.0 -0.046113662 0.0026591409 -0.12519462 0.0 0.0
-0.13397576 -0.007959948 -0.09620632 -0.1313993 0.0 -0.11401149 -0.081554964 -0.120977506
-0.012563696 -0.13631272 -0.0039538485 -0.10289492 -0.048306458 -0.00567725 -0.10269736 0.0
0.026710685 -0.08310962 -0.123318866 -0.14590673 0.0 -0.011758673 0.0 0.0
-0.0015378162 -0.11286445 0.005805491 -0.04762165 -0.12372844 0.0 -0.00029792674 -0.035058778
-0.10186418 -0.12653717 -0.101677805 0.039069474 -0.0023767303 0.0 -0.003022627 -0.10228426
-0.007548306 0.0 -0.09432384 0.0080221435 0.02256326 -0.0131994225 0.0 -0.0044186804
00000000: 6e38 9abd 0000 0000 d163 87bb aec8 1b3b
00000010: 3688 dfbd 3ee7 693c 9891 18be cbf9 383d
00000020: a32e 4ebc 3cb4 0cbe 0000 0000 aee1 3cbd
00000030: fb44 2e3b 0533 00be 0000 0000 0000 0000
00000040: f130 09be 716a 02bc d207 c5bd 8a8d 06be
00000050: 0000 0000 db7e e9bd 4a06 a7bd 0ec3 f7bd
00000060: f6d7 4dbc 9095 0bbe 498f 81bb 92ba d2bd
00000070: fedc 45bd 3a08 babb fe52 d2bd 0000 0000
00000080: 5ed0 da3c 6035 aabd 9a8e fcbd 9368 15be
00000090: 0000 0000 73a7 40bc 0000 0000 0000 0000
000000a0: 8d90 c9ba 7a25 e7bd fd3b be3b eb0e 43bd
000000b0: 5665 fdbd 0000 0000 0d33 9cb9 cb99 0fbd
000000c0: 2b9e d0bd f692 01be 743c d0bd 5007 203d
000000d0: ebc2 1bbb 0000 0000 4417 46bb 697a d1bd
000000e0: c857 f7bb 0000 0000 dc2c c1bd 4f6f 033c
000000f0: 96d6 b83c 6442 58bc 0000 0000 94ca 90bb
